{"format": "layers-model", "generatedBy": "keras v3.10.0", "convertedBy": "TensorFlow.js Converter v4.22.0", "modelTopology": {"keras_version": "3.10.0", "backend": "tensorflow", "model_config": {"class_name": "Functional", "config": {"name": "TFT", "trainable": true, "layers": [{"class_name": "InputLayer", "config": {"batch_shape": [null, 30, 6], "dtype": "float32", "sparse": false, "ragged": false, "name": "input_layer"}, "name": "input_layer", "inbound_nodes": []}, {"class_name": "GlobalAveragePooling1D", "config": {"name": "global_average_pooling1d", "trainable": true, "dtype": {"module": "keras", "class_name": "DTypePolicy", "config": {"name": "float32"}, "registered_name": null}, "data_format": "channels_last", "keepdims": false}, "name": "global_average_pooling1d", "inbound_nodes": [{"args": [{"class_name": "__keras_tensor__", "config": {"shape": [null, 30, 6], "dtype": "float32", "keras_history": ["input_layer", 0, 0]}}], "kwargs": {"mask": null}}]}, {"class_name": "Dense", "config": {"name": "dense", "trainable": true, "dtype": {"module": "keras", "class_name": "DTypePolicy", "config": {"name": "float32"}, "registered_name": null}, "units": 6, "activation": "softmax", "use_bias": true, "kernel_initializer": {"module": "keras.initializers", "class_name": "GlorotUniform", "config": {"seed": null}, "registered_name": null}, "bias_initializer": {"module": "keras.initializers", "class_name": "Zeros", "config": {}, "registered_name": null}, "kernel_regularizer": null, "bias_regularizer": null, "kernel_constraint": null, "bias_constraint": null}, "name": "dense", "inbound_nodes": [{"args": [{"class_name": "__keras_tensor__", "config": {"shape": [null, 6], "dtype": "float32", "keras_history": ["global_average_pooling1d", 0, 0]}}], "kwargs": {}}]}, {"class_name": "RepeatVector", "config": {"name": "repeat_vector", "trainable": true, "dtype": {"module": "keras", "class_name": "DTypePolicy", "config": {"name": "float32"}, "registered_name": null}, "n": 30}, "name": "repeat_vector", "inbound_nodes": [{"args": [{"class_name": "__keras_tensor__", "config": {"shape": [null, 6], "dtype": "float32", "keras_history": ["dense", 0, 0]}}], "kwargs": {}}]}, {"class_name": "Multiply", "config": {"name": "multiply", "trainable": true, "dtype": {"module": "keras", "class_name": "DTypePolicy", "config": {"name": "float32"}, "registered_name": null}}, "name": "multiply", "inbound_nodes": [{"args": [[{"class_name": "__keras_tensor__", "config": {"shape": [null, 30, 6], "dtype": "float32", "keras_history": ["input_layer", 0, 0]}}, {"class_name": "__keras_tensor__", "config": {"shape": [null, 30, 6], "dtype": "float32", "keras_history": ["repeat_vector", 0, 0]}}]], "kwargs": {}}]}, {"class_name": "LSTM", "config": {"name": "lstm", "trainable": true, "dtype": {"module": "keras", "class_name": "DTypePolicy", "config": {"name": "float32"}, "registered_name": null}, "return_sequences": true, "return_state": false, "go_backwards": false, "stateful": false, "unroll": false, "zero_output_for_mask": false, "units": 64, "activation": "tanh", "recurrent_activation": "sigmoid", "use_bias": true, "kernel_initializer": {"module": "keras.initializers", "class_name": "GlorotUniform", "config": {"seed": null}, "registered_name": null}, "recurrent_initializer": {"module": "keras.initializers", "class_name": "Orthogonal", "config": {"seed": null, "gain": 1.0}, "registered_name": null}, "bias_initializer": {"module": "keras.initializers", "class_name": "Zeros", "config": {}, "registered_name": null}, "unit_forget_bias": true, "kernel_regularizer": null, "recurrent_regularizer": null, "bias_regularizer": null, "activity_regularizer": null, "kernel_constraint": null, "recurrent_constraint": null, "bias_constraint": null, "dropout": 0.2, "recurrent_dropout": 0.0, "seed": null}, "name": "lstm", "inbound_nodes": [{"args": [{"class_name": "__keras_tensor__", "config": {"shape": [null, 30, 6], "dtype": "float32", "keras_history": ["multiply", 0, 0]}}], "kwargs": {"training": false, "mask": null}}]}, {"class_name": "MultiHeadAttention", "config": {"name": "multi_head_attention", "trainable": true, "dtype": {"module": "keras", "class_name": "DTypePolicy", "config": {"name": "float32"}, "registered_name": null}, "num_heads": 4, "key_dim": 16, "value_dim": 16, "dropout": 0.0, "use_bias": true, "output_shape": null, "attention_axes": [1], "kernel_initializer": {"module": "keras.initializers", "class_name": "GlorotUniform", "config": {"seed": null}, "registered_name": null}, "bias_initializer": {"module": "keras.initializers", "class_name": "Zeros", "config": {}, "registered_name": null}, "kernel_regularizer": null, "bias_regularizer": null, "activity_regularizer": null, "kernel_constraint": null, "bias_constraint": null, "seed": null}, "name": "multi_head_attention", "inbound_nodes": [{"args": [{"class_name": "__keras_tensor__", "config": {"shape": [null, 30, 64], "dtype": "float32", "keras_history": ["lstm", 0, 0]}}, {"class_name": "__keras_tensor__", "config": {"shape": [null, 30, 64], "dtype": "float32", "keras_history": ["lstm", 0, 0]}}], "kwargs": {}}]}, {"class_name": "Add", "config": {"name": "add"}, "name": "add", "inbound_nodes": [{"args": [{"class_name": "__keras_tensor__", "config": {"shape": [null, 30, 64], "dtype": "float32", "keras_history": ["multi_head_attention", 0, 0]}}, {"class_name": "__keras_tensor__", "config": {"shape": [null, 30, 64], "dtype": "float32", "keras_history": ["lstm", 0, 0]}}], "kwargs": {}}]}, {"class_name": "LayerNormalization", "config": {"name": "layer_normalization", "trainable": true, "dtype": {"module": "keras", "class_name": "DTypePolicy", "config": {"name": "float32"}, "registered_name": null}, "axis": [-1], "epsilon": 0.001, "center": true, "scale": true, "rms_scaling": false, "beta_initializer": {"module": "keras.initializers", "class_name": "Zeros", "config": {}, "registered_name": null}, "gamma_initializer": {"module": "keras.initializers", "class_name": "Ones", "config": {}, "registered_name": null}, "beta_regularizer": null, "gamma_regularizer": null, "beta_constraint": null, "gamma_constraint": null}, "name": "layer_normalization", "inbound_nodes": [{"args": [{"class_name": "__keras_tensor__", "config": {"shape": [null, 30, 64], "dtype": "float32", "keras_history": ["add", 0, 0]}}], "kwargs": {}}]}, {"class_name": "GlobalAveragePooling1D", "config": {"name": "global_average_pooling1d_1", "trainable": true, "dtype": {"module": "keras", "class_name": "DTypePolicy", "config": {"name": "float32"}, "registered_name": null}, "data_format": "channels_last", "keepdims": false}, "name": "global_average_pooling1d_1", "inbound_nodes": [{"args": [{"class_name": "__keras_tensor__", "config": {"shape": [null, 30, 64], "dtype": "float32", "keras_history": ["layer_normalization", 0, 0]}}], "kwargs": {"mask": null}}]}, {"class_name": "Dense", "config": {"name": "dense_1", "trainable": true, "dtype": {"module": "keras", "class_name": "DTypePolicy", "config": {"name": "float32"}, "registered_name": null}, "units": 32, "activation": "relu", "use_bias": true, "kernel_initializer": {"module": "keras.initializers", "class_name": "GlorotUniform", "config": {"seed": null}, "registered_name": null}, "bias_initializer": {"module": "keras.initializers", "class_name": "Zeros", "config": {}, "registered_name": null}, "kernel_regularizer": null, "bias_regularizer": null, "kernel_constraint": null, "bias_constraint": null}, "name": "dense_1", "inbound_nodes": [{"args": [{"class_name": "__keras_tensor__", "config": {"shape": [null, 64], "dtype": "float32", "keras_history": ["global_average_pooling1d_1", 0, 0]}}], "kwargs": {}}]}, {"class_name": "Dense", "config": {"name": "dense_2", "trainable": true, "dtype": {"module": "keras", "class_name": "DTypePolicy", "config": {"name": "float32"}, "registered_name": null}, "units": 1, "activation": "linear", "use_bias": true, "kernel_initializer": {"module": "keras.initializers", "class_name": "GlorotUniform", "config": {"seed": null}, "registered_name": null}, "bias_initializer": {"module": "keras.initializers", "class_name": "Zeros", "config": {}, "registered_name": null}, "kernel_regularizer": null, "bias_regularizer": null, "kernel_constraint": null, "bias_constraint": null}, "name": "dense_2", "inbound_nodes": [{"args": [{"class_name": "__keras_tensor__", "config": {"shape": [null, 32], "dtype": "float32", "keras_history": ["dense_1", 0, 0]}}], "kwargs": {}}]}], "input_layers": [["input_layer", 0, 0]], "output_layers": [["dense_2", 0, 0]]}}, "training_config": {"loss": "mse", "loss_weights": null, "metrics": ["mae"], "weighted_metrics": null, "run_eagerly": false, "steps_per_execution": 1, "jit_compile": false, "optimizer_config": {"class_name": "Adam", "config": {"name": "adam", "learning_rate": 1.000000082740371e-07, "weight_decay": null, "clipnorm": null, "global_clipnorm": null, "clipvalue": null, "use_ema": false, "ema_momentum": 0.99, "ema_overwrite_frequency": null, "loss_scale_factor": null, "gradient_accumulation_steps": null, "beta_1": 0.9, "beta_2": 0.999, "epsilon": 1e-07, "amsgrad": false}}}}, "weightsManifest": [{"paths": ["group1-shard1of1.bin"], "weights": [{"name": "dense/kernel", "shape": [6, 6], "dtype": "float32"}, {"name": "dense/bias", "shape": [6], "dtype": "float32"}, {"name": "dense_1/kernel", "shape": [64, 32], "dtype": "float32"}, {"name": "dense_1/bias", "shape": [32], "dtype": "float32"}, {"name": "dense_2/kernel", "shape": [32, 1], "dtype": "float32"}, {"name": "dense_2/bias", "shape": [1], "dtype": "float32"}, {"name": "layer_normalization/gamma", "shape": [64], "dtype": "float32"}, {"name": "layer_normalization/beta", "shape": [64], "dtype": "float32"}, {"name": "lstm/lstm_cell/kernel", "shape": [6, 256], "dtype": "float32"}, {"name": "lstm/lstm_cell/recurrent_kernel", "shape": [64, 256], "dtype": "float32"}, {"name": "lstm/lstm_cell/bias", "shape": [256], "dtype": "float32"}, {"name": "multi_head_attention/query/kernel", "shape": [64, 4, 16], "dtype": "float32"}, {"name": "multi_head_attention/query/bias", "shape": [4, 16], "dtype": "float32"}, {"name": "multi_head_attention/key/kernel", "shape": [64, 4, 16], "dtype": "float32"}, {"name": "multi_head_attention/key/bias", "shape": [4, 16], "dtype": "float32"}, {"name": "multi_head_attention/value/kernel", "shape": [64, 4, 16], "dtype": "float32"}, {"name": "multi_head_attention/value/bias", "shape": [4, 16], "dtype": "float32"}, {"name": "multi_head_attention/attention_output/kernel", "shape": [4, 16, 64], "dtype": "float32"}, {"name": "multi_head_attention/attention_output/bias", "shape": [64], "dtype": "float32"}]}]}